…
2024-01-23 19:36:23,369 - PROT.PROT.models.ESM2_multitask.model - INFO - 	species.0.bias
2024-01-23 19:36:23,371 - PROT.PROT.models.ESM2_multitask.model - INFO - 	expression.0.weight
2024-01-23 19:36:23,372 - PROT.PROT.models.ESM2_multitask.model - INFO - 	expression.0.bias
2024-01-23 19:36:23,373 - PROT.PROT.models.ESM2_multitask.model - INFO - 	aggregation.0.weight
2024-01-23 19:36:23,374 - PROT.PROT.models.ESM2_multitask.model - INFO - 	aggregation.0.bias
2024-01-23 19:36:23,379 - PROT.PROT.models.ESM2_multitask.model - INFO - <init>: 
ESM2_multitask(
  (embedding): ESM2Embedding(
    (model): ESM2(
      (embed_tokens): Embedding(33, 1280, padding_idx=1)
      (layers): ModuleList(
        (0): TransformerLoRALayer(
          (self_attn): MultiheadAttention(
            (k_proj): Linear(in_features=1280, out_features=1280, bias=True)
            (v_proj): Linear(in_features=1280, out_features=1280, bias=True)
            (q_proj): Linear(in_features=1280, out_features=1280, bias=True)
            (k_LoRA): LowRankProjection(1280, 1280, rank=6, alpha=6)
            (v_LoRA): LowRankProjection(1280, 1280, rank=6, alpha=6)
            (q_LoRA): LowRankProjection(1280, 1280, rank=6, alpha=6)
            (out_proj): Linear(in_features=1280, out_features=1280, bias=True)
            (rot_emb): RotaryEmbedding()
          )
          (self_attn_layer_norm): LayerNorm((1280,), eps=1e-05, elementwise_affine=True)
          (fc1_LoRA): LowRankProjection(1280, 5120, rank=6, alpha=6)
          (fc1): Linear(in_features=1280, out_features=5120, bias=True)
          (fc2_LoRA): LowRankProjection(5120, 1280, rank=6, alpha=6)
          (fc2): Linear(in_features=5120, out_features=1280, bias=True)
          (final_layer_norm): LayerNorm((1280,), eps=1e-05, elementwise_affine=True)
        )
        (1): TransformerLoRALayer(
          (self_attn): MultiheadAttention(
            (k_proj): Linear(in_features=1280, out_features=1280, bias=True)
            (v_proj): Linear(in_features=1280, out_features=1280, bias=True)
            (q_proj): Linear(in_features=1280, out_features=1280, bias=True)
            (k_LoRA): LowRankProjection(1280, 1280, rank=6, alpha=6)
            (v_LoRA): LowRankProjection(1280, 1280, rank=6, alpha=6)
            (q_LoRA): LowRankProjection(1280, 1280, rank=6, alpha=6)
            (out_proj): Linear(in_features=1280, out_features=1280, bias=True)
            (rot_emb): RotaryEmbedding()
          )
          (self_attn_layer_norm): LayerNorm((1280,), eps=1e-05, elementwise_affine=True)
          (fc1_LoRA): LowRankProjection(1280, 5120, rank=6, alpha=6)
          (fc1): Linear(in_features=1280, out_features=5120, bias=True)
          (fc2_LoRA): LowRankProjection(5120, 1280, rank=6, alpha=6)
          (fc2): Linear(in_features=5120, out_features=1280, bias=True)
          (final_layer_norm): LayerNorm((1280,), eps=1e-05, elementwise_affine=True)
        )
        (2): TransformerLoRALayer(
          (self_attn): MultiheadAttention(
            (k_proj): Linear(in_features=1280, out_features=1280, bias=True)
            (v_proj): Linear(in_features=1280, out_features=1280, bias=True)
            (q_proj): Linear(in_features=1280, out_features=1280, bias=True)
            (k_LoRA): LowRankProjection(1280, 1280, rank=6, alpha=6)
            (v_LoRA): LowRankProjection(1280, 1280, rank=6, alpha=6)
            (q_LoRA): LowRankProjection(1280, 1280, rank=6, alpha=6)
            (out_proj): Linear(in_features=1280, out_features=1280, bias=True)
            (rot_emb): RotaryEmbedding()
          )
          (self_attn_layer_norm): LayerNorm((1280,), eps=1e-05, elementwise_affine=True)
          (fc1_LoRA): LowRankProjection(1280, 5120, rank=6, alpha=6)
          (fc1): Linear(in_features=1280, out_features=5120, bias=True)
          (fc2_LoRA): LowRankProjection(5120, 1280, rank=6, alpha=6)
          (fc2): Linear(in_features=5120, out_features=1280, bias=True)
          (final_layer_norm): LayerNorm((1280,), eps=1e-05, elementwise_affine=True)
        )
        (3): TransformerLoRALayer(
          (self_attn): MultiheadAttention(
            (k_proj): Linear(in_features=1280, out_features=1280, bias=True)
            (v_proj): Linear(in_features=1280, out_features=1280, bias=True)
            (q_proj): Linear(in_features=1280, out_features=1280, bias=True)
            (k_LoRA): LowRankProjection(1280, 1280, rank=6, alpha=6)
            (v_LoRA): LowRankProjection(1280, 1280, rank=6, alpha=6)
            (q_LoRA): LowRankProjection(1280, 1280, rank=6, alpha=6)
            (out_proj): Linear(in_features=1280, out_features=1280, bias=True)
            (rot_emb): RotaryEmbedding()
          )
          (self_attn_layer_norm): LayerNorm((1280,), eps=1e-05, elementwise_affine=True)
          (fc1_LoRA): LowRankProjection(1280, 5120, rank=6, alpha=6)
          (fc1): Linear(in_features=1280, out_features=5120, bias=True)
          (fc2_LoRA): LowRankProjection(5120, 1280, rank=6, alpha=6)
          (fc2): Linear(in_features=5120, out_features=1280, bias=True)
          (final_layer_norm): LayerNorm((1280,), eps=1e-05, elementwise_affine=True)
        )
        (4): TransformerLoRALayer(
          (self_attn): MultiheadAttention(
            (k_proj): Linear(in_features=1280, out_features=1280, bias=True)
            (v_proj): Linear(in_features=1280, out_features=1280, bias=True)
            (q_proj): Linear(in_features=1280, out_features=1280, bias=True)
            (k_LoRA): LowRankProjection(1280, 1280, rank=6, alpha=6)
            (v_LoRA): LowRankProjection(1280, 1280, rank=6, alpha=6)
            (q_LoRA): LowRankProjection(1280, 1280, rank=6, alpha=6)
            (out_proj): Linear(in_features=1280, out_features=1280, bias=True)
            (rot_emb): RotaryEmbedding()
          )
          (self_attn_layer_norm): LayerNorm((1280,), eps=1e-05, elementwise_affine=True)
          (fc1_LoRA): LowRankProjection(1280, 5120, rank=6, alpha=6)
          (fc1): Linear(in_features=1280, out_features=5120, bias=True)
          (fc2_LoRA): LowRankProjection(5120, 1280, rank=6, alpha=6)
          (fc2): Linear(in_features=5120, out_features=1280, bias=True)
          (final_layer_norm): LayerNorm((1280,), eps=1e-05, elementwise_affine=True)
        )
        (5): TransformerLoRALayer(
          (self_attn): MultiheadAttention(
            (k_proj): Linear(in_features=1280, out_features=1280, bias=True)
            (v_proj): Linear(in_features=1280, out_features=1280, bias=True)
            (q_proj): Linear(in_features=1280, out_features=1280, bias=True)
            (k_LoRA): LowRankProjection(1280, 1280, rank=6, alpha=6)
            (v_LoRA): LowRankProjection(1280, 1280, rank=6, alpha=6)
            (q_LoRA): LowRankProjection(1280, 1280, rank=6, alpha=6)
            (out_proj): Linear(in_features=1280, out_features=1280, bias=True)
            (rot_emb): RotaryEmbedding()
          )
          (self_attn_layer_norm): LayerNorm((1280,), eps=1e-05, elementwise_affine=True)
          (fc1_LoRA): LowRankProjection(1280, 5120, rank=6, alpha=6)
          (fc1): Linear(in_features=1280, out_features=5120, bias=True)
          (fc2_LoRA): LowRankProjection(5120, 1280, rank=6, alpha=6)
          (fc2): Linear(in_features=5120, out_features=1280, bias=True)
          (final_layer_norm): LayerNorm((1280,), eps=1e-05, elementwise_affine=True)
        )
        (6): TransformerLoRALayer(
          (self_attn): MultiheadAttention(
            (k_proj): Linear(in_features=1280, out_features=1280, bias=True)
            (v_proj): Linear(in_features=1280, out_features=1280, bias=True)
            (q_proj): Linear(in_features=1280, out_features=1280, bias=True)
            (k_LoRA): LowRankProjection(1280, 1280, rank=6, alpha=6)
            (v_LoRA): LowRankProjection(1280, 1280, rank=6, alpha=6)
            (q_LoRA): LowRankProjection(1280, 1280, rank=6, alpha=6)
            (out_proj): Linear(in_features=1280, out_features=1280, bias=True)
            (rot_emb): RotaryEmbedding()
          )
          (self_attn_layer_norm): LayerNorm((1280,), eps=1e-05, elementwise_affine=True)
          (fc1_LoRA): LowRankProjection(1280, 5120, rank=6, alpha=6)
          (fc1): Linear(in_features=1280, out_features=5120, bias=True)
          (fc2_LoRA): LowRankProjection(5120, 1280, rank=6, alpha=6)
          (fc2): Linear(in_features=5120, out_features=1280, bias=True)
          (final_layer_norm): LayerNorm((1280,), eps=1e-05, elementwise_affine=True)
        )
        (7): TransformerLoRALayer(
          (self_attn): MultiheadAttention(
            (k_proj): Linear(in_features=1280, out_features=1280, bias=True)
            (v_proj): Linear(in_features=1280, out_features=1280, bias=True)
            (q_proj): Linear(in_features=1280, out_features=1280, bias=True)
            (k_LoRA): LowRankProjection(1280, 1280, rank=6, alpha=6)
            (v_LoRA): LowRankProjection(1280, 1280, rank=6, alpha=6)
            (q_LoRA): LowRankProjection(1280, 1280, rank=6, alpha=6)
            (out_proj): Linear(in_features=1280, out_features=1280, bias=True)
            (rot_emb): RotaryEmbedding()
          )
          (self_attn_layer_norm): LayerNorm((1280,), eps=1e-05, elementwise_affine=True)
          (fc1_LoRA): LowRankProjection(1280, 5120, rank=6, alpha=6)
          (fc1): Linear(in_features=1280, out_features=5120, bias=True)
          (fc2_LoRA): LowRankProjection(5120, 1280, rank=6, alpha=6)
          (fc2): Linear(in_features=5120, out_features=1280, bias=True)
          (final_layer_norm): LayerNorm((1280,), eps=1e-05, elementwise_affine=True)
        )
        (8): TransformerLoRALayer(
          (self_attn): MultiheadAttention(
            (k_proj): Linear(in_features=1280, out_features=1280, bias=True)
            (v_proj): Linear(in_features=1280, out_features=1280, bias=True)
            (q_proj): Linear(in_features=1280, out_features=1280, bias=True)
            (k_LoRA): LowRankProjection(1280, 1280, rank=6, alpha=6)
            (v_LoRA): LowRankProjection(1280, 1280, rank=6, alpha=6)
            (q_LoRA): LowRankProjection(1280, 1280, rank=6, alpha=6)
            (out_proj): Linear(in_features=1280, out_features=1280, bias=True)
            (rot_emb): RotaryEmbedding()
          )
          (self_attn_layer_norm): LayerNorm((1280,), eps=1e-05, elementwise_affine=True)
          (fc1_LoRA): LowRankProjection(1280, 5120, rank=6, alpha=6)
          (fc1): Linear(in_features=1280, out_features=5120, bias=True)
          (fc2_LoRA): LowRankProjection(5120, 1280, rank=6, alpha=6)
          (fc2): Linear(in_features=5120, out_features=1280, bias=True)
          (final_layer_norm): LayerNorm((1280,), eps=1e-05, elementwise_affine=True)
        )
        (9): TransformerLoRALayer(
          (self_attn): MultiheadAttention(
            (k_proj): Linear(in_features=1280, out_features=1280, bias=True)
            (v_proj): Linear(in_features=1280, out_features=1280, bias=True)
            (q_proj): Linear(in_features=1280, out_features=1280, bias=True)
            (k_LoRA): LowRankProjection(1280, 1280, rank=6, alpha=6)
            (v_LoRA): LowRankProjection(1280, 1280, rank=6, alpha=6)
            (q_LoRA): LowRankProjection(1280, 1280, rank=6, alpha=6)
            (out_proj): Linear(in_features=1280, out_features=1280, bias=True)
            (rot_emb): RotaryEmbedding()
          )
          (self_attn_layer_norm): LayerNorm((1280,), eps=1e-05, elementwise_affine=True)
          (fc1_LoRA): LowRankProjection(1280, 5120, rank=6, alpha=6)
          (fc1): Linear(in_features=1280, out_features=5120, bias=True)
          (fc2_LoRA): LowRankProjection(5120, 1280, rank=6, alpha=6)
          (fc2): Linear(in_features=5120, out_features=1280, bias=True)
          (final_layer_norm): LayerNorm((1280,), eps=1e-05, elementwise_affine=True)
        )
        (10): TransformerLoRALayer(
          (self_attn): MultiheadAttention(
            (k_proj): Linear(in_features=1280, out_features=1280, bias=True)
            (v_proj): Linear(in_features=1280, out_features=1280, bias=True)
            (q_proj): Linear(in_features=1280, out_features=1280, bias=True)
            (k_LoRA): LowRankProjection(1280, 1280, rank=6, alpha=6)
            (v_LoRA): LowRankProjection(1280, 1280, rank=6, alpha=6)
            (q_LoRA): LowRankProjection(1280, 1280, rank=6, alpha=6)
            (out_proj): Linear(in_features=1280, out_features=1280, bias=True)
            (rot_emb): RotaryEmbedding()
          )
          (self_attn_layer_norm): LayerNorm((1280,), eps=1e-05, elementwise_affine=True)
          (fc1_LoRA): LowRankProjection(1280, 5120, rank=6, alpha=6)
          (fc1): Linear(in_features=1280, out_features=5120, bias=True)
          (fc2_LoRA): LowRankProjection(5120, 1280, rank=6, alpha=6)
          (fc2): Linear(in_features=5120, out_features=1280, bias=True)
          (final_layer_norm): LayerNorm((1280,), eps=1e-05, elementwise_affine=True)
        )
        (11): TransformerLoRALayer(
          (self_attn): MultiheadAttention(
            (k_proj): Linear(in_features=1280, out_features=1280, bias=True)
            (v_proj): Linear(in_features=1280, out_features=1280, bias=True)
            (q_proj): Linear(in_features=1280, out_features=1280, bias=True)
            (k_LoRA): LowRankProjection(1280, 1280, rank=6, alpha=6)
            (v_LoRA): LowRankProjection(1280, 1280, rank=6, alpha=6)
            (q_LoRA): LowRankProjection(1280, 1280, rank=6, alpha=6)
            (out_proj): Linear(in_features=1280, out_features=1280, bias=True)
            (rot_emb): RotaryEmbedding()
          )
          (self_attn_layer_norm): LayerNorm((1280,), eps=1e-05, elementwise_affine=True)
          (fc1_LoRA): LowRankProjection(1280, 5120, rank=6, alpha=6)
          (fc1): Linear(in_features=1280, out_features=5120, bias=True)
          (fc2_LoRA): LowRankProjection(5120, 1280, rank=6, alpha=6)
          (fc2): Linear(in_features=5120, out_features=1280, bias=True)
          (final_layer_norm): LayerNorm((1280,), eps=1e-05, elementwise_affine=True)
        )
        (12): TransformerLoRALayer(
          (self_attn): MultiheadAttention(
            (k_proj): Linear(in_features=1280, out_features=1280, bias=True)
            (v_proj): Linear(in_features=1280, out_features=1280, bias=True)
            (q_proj): Linear(in_features=1280, out_features=1280, bias=True)
            (k_LoRA): LowRankProjection(1280, 1280, rank=6, alpha=6)
            (v_LoRA): LowRankProjection(1280, 1280, rank=6, alpha=6)
            (q_LoRA): LowRankProjection(1280, 1280, rank=6, alpha=6)
            (out_proj): Linear(in_features=1280, out_features=1280, bias=True)
            (rot_emb): RotaryEmbedding()
          )
          (self_attn_layer_norm): LayerNorm((1280,), eps=1e-05, elementwise_affine=True)
          (fc1_LoRA): LowRankProjection(1280, 5120, rank=6, alpha=6)
          (fc1): Linear(in_features=1280, out_features=5120, bias=True)
          (fc2_LoRA): LowRankProjection(5120, 1280, rank=6, alpha=6)
          (fc2): Linear(in_features=5120, out_features=1280, bias=True)
          (final_layer_norm): LayerNorm((1280,), eps=1e-05, elementwise_affine=True)
        )
        (13): TransformerLoRALayer(
          (self_attn): MultiheadAttention(
            (k_proj): Linear(in_features=1280, out_features=1280, bias=True)
            (v_proj): Linear(in_features=1280, out_features=1280, bias=True)
            (q_proj): Linear(in_features=1280, out_features=1280, bias=True)
            (k_LoRA): LowRankProjection(1280, 1280, rank=6, alpha=6)
            (v_LoRA): LowRankProjection(1280, 1280, rank=6, alpha=6)
            (q_LoRA): LowRankProjection(1280, 1280, rank=6, alpha=6)
            (out_proj): Linear(in_features=1280, out_features=1280, bias=True)
            (rot_emb): RotaryEmbedding()
          )
          (self_attn_layer_norm): LayerNorm((1280,), eps=1e-05, elementwise_affine=True)
          (fc1_LoRA): LowRankProjection(1280, 5120, rank=6, alpha=6)
          (fc1): Linear(in_features=1280, out_features=5120, bias=True)
          (fc2_LoRA): LowRankProjection(5120, 1280, rank=6, alpha=6)
          (fc2): Linear(in_features=5120, out_features=1280, bias=True)
          (final_layer_norm): LayerNorm((1280,), eps=1e-05, elementwise_affine=True)
        )
        (14): TransformerLoRALayer(
          (self_attn): MultiheadAttention(
            (k_proj): Linear(in_features=1280, out_features=1280, bias=True)
            (v_proj): Linear(in_features=1280, out_features=1280, bias=True)
            (q_proj): Linear(in_features=1280, out_features=1280, bias=True)
            (k_LoRA): LowRankProjection(1280, 1280, rank=6, alpha=6)
            (v_LoRA): LowRankProjection(1280, 1280, rank=6, alpha=6)
            (q_LoRA): LowRankProjection(1280, 1280, rank=6, alpha=6)
            (out_proj): Linear(in_features=1280, out_features=1280, bias=True)
            (rot_emb): RotaryEmbedding()
          )
          (self_attn_layer_norm): LayerNorm((1280,), eps=1e-05, elementwise_affine=True)
          (fc1_LoRA): LowRankProjection(1280, 5120, rank=6, alpha=6)
          (fc1): Linear(in_features=1280, out_features=5120, bias=True)
          (fc2_LoRA): LowRankProjection(5120, 1280, rank=6, alpha=6)
          (fc2): Linear(in_features=5120, out_features=1280, bias=True)
          (final_layer_norm): LayerNorm((1280,), eps=1e-05, elementwise_affine=True)
        )
        (15): TransformerLoRALayer(
          (self_attn): MultiheadAttention(
            (k_proj): Linear(in_features=1280, out_features=1280, bias=True)
            (v_proj): Linear(in_features=1280, out_features=1280, bias=True)
            (q_proj): Linear(in_features=1280, out_features=1280, bias=True)
            (k_LoRA): LowRankProjection(1280, 1280, rank=6, alpha=6)
            (v_LoRA): LowRankProjection(1280, 1280, rank=6, alpha=6)
            (q_LoRA): LowRankProjection(1280, 1280, rank=6, alpha=6)
            (out_proj): Linear(in_features=1280, out_features=1280, bias=True)
            (rot_emb): RotaryEmbedding()
          )
          (self_attn_layer_norm): LayerNorm((1280,), eps=1e-05, elementwise_affine=True)
          (fc1_LoRA): LowRankProjection(1280, 5120, rank=6, alpha=6)
          (fc1): Linear(in_features=1280, out_features=5120, bias=True)
          (fc2_LoRA): LowRankProjection(5120, 1280, rank=6, alpha=6)
          (fc2): Linear(in_features=5120, out_features=1280, bias=True)
          (final_layer_norm): LayerNorm((1280,), eps=1e-05, elementwise_affine=True)
        )
        (16): TransformerLoRALayer(
          (self_attn): MultiheadAttention(
            (k_proj): Linear(in_features=1280, out_features=1280, bias=True)
            (v_proj): Linear(in_features=1280, out_features=1280, bias=True)
            (q_proj): Linear(in_features=1280, out_features=1280, bias=True)
            (k_LoRA): LowRankProjection(1280, 1280, rank=6, alpha=6)
            (v_LoRA): LowRankProjection(1280, 1280, rank=6, alpha=6)
            (q_LoRA): LowRankProjection(1280, 1280, rank=6, alpha=6)
            (out_proj): Linear(in_features=1280, out_features=1280, bias=True)
            (rot_emb): RotaryEmbedding()
          )
          (self_attn_layer_norm): LayerNorm((1280,), eps=1e-05, elementwise_affine=True)
          (fc1_LoRA): LowRankProjection(1280, 5120, rank=6, alpha=6)
          (fc1): Linear(in_features=1280, out_features=5120, bias=True)
          (fc2_LoRA): LowRankProjection(5120, 1280, rank=6, alpha=6)
          (fc2): Linear(in_features=5120, out_features=1280, bias=True)
          (final_layer_norm): LayerNorm((1280,), eps=1e-05, elementwise_affine=True)
        )
        (17): TransformerLoRALayer(
          (self_attn): MultiheadAttention(
            (k_proj): Linear(in_features=1280, out_features=1280, bias=True)
            (v_proj): Linear(in_features=1280, out_features=1280, bias=True)
            (q_proj): Linear(in_features=1280, out_features=1280, bias=True)
            (k_LoRA): LowRankProjection(1280, 1280, rank=6, alpha=6)
            (v_LoRA): LowRankProjection(1280, 1280, rank=6, alpha=6)
            (q_LoRA): LowRankProjection(1280, 1280, rank=6, alpha=6)
            (out_proj): Linear(in_features=1280, out_features=1280, bias=True)
            (rot_emb): RotaryEmbedding()
          )
          (self_attn_layer_norm): LayerNorm((1280,), eps=1e-05, elementwise_affine=True)
          (fc1_LoRA): LowRankProjection(1280, 5120, rank=6, alpha=6)
          (fc1): Linear(in_features=1280, out_features=5120, bias=True)
          (fc2_LoRA): LowRankProjection(5120, 1280, rank=6, alpha=6)
          (fc2): Linear(in_features=5120, out_features=1280, bias=True)
          (final_layer_norm): LayerNorm((1280,), eps=1e-05, elementwise_affine=True)
        )
        (18): TransformerLoRALayer(
          (self_attn): MultiheadAttention(
            (k_proj): Linear(in_features=1280, out_features=1280, bias=True)
            (v_proj): Linear(in_features=1280, out_features=1280, bias=True)
            (q_proj): Linear(in_features=1280, out_features=1280, bias=True)
            (k_LoRA): LowRankProjection(1280, 1280, rank=6, alpha=6)
            (v_LoRA): LowRankProjection(1280, 1280, rank=6, alpha=6)
            (q_LoRA): LowRankProjection(1280, 1280, rank=6, alpha=6)
            (out_proj): Linear(in_features=1280, out_features=1280, bias=True)
            (rot_emb): RotaryEmbedding()
          )
          (self_attn_layer_norm): LayerNorm((1280,), eps=1e-05, elementwise_affine=True)
          (fc1_LoRA): LowRankProjection(1280, 5120, rank=6, alpha=6)
          (fc1): Linear(in_features=1280, out_features=5120, bias=True)
          (fc2_LoRA): LowRankProjection(5120, 1280, rank=6, alpha=6)
          (fc2): Linear(in_features=5120, out_features=1280, bias=True)
          (final_layer_norm): LayerNorm((1280,), eps=1e-05, elementwise_affine=True)
        )
        (19): TransformerLoRALayer(
          (self_attn): MultiheadAttention(
            (k_proj): Linear(in_features=1280, out_features=1280, bias=True)
            (v_proj): Linear(in_features=1280, out_features=1280, bias=True)
            (q_proj): Linear(in_features=1280, out_features=1280, bias=True)
            (k_LoRA): LowRankProjection(1280, 1280, rank=6, alpha=6)
            (v_LoRA): LowRankProjection(1280, 1280, rank=6, alpha=6)
            (q_LoRA): LowRankProjection(1280, 1280, rank=6, alpha=6)
            (out_proj): Linear(in_features=1280, out_features=1280, bias=True)
            (rot_emb): RotaryEmbedding()
          )
          (self_attn_layer_norm): LayerNorm((1280,), eps=1e-05, elementwise_affine=True)
          (fc1_LoRA): LowRankProjection(1280, 5120, rank=6, alpha=6)
          (fc1): Linear(in_features=1280, out_features=5120, bias=True)
          (fc2_LoRA): LowRankProjection(5120, 1280, rank=6, alpha=6)
          (fc2): Linear(in_features=5120, out_features=1280, bias=True)
          (final_layer_norm): LayerNorm((1280,), eps=1e-05, elementwise_affine=True)
        )
        (20): TransformerLoRALayer(
          (self_attn): MultiheadAttention(
            (k_proj): Linear(in_features=1280, out_features=1280, bias=True)
            (v_proj): Linear(in_features=1280, out_features=1280, bias=True)
            (q_proj): Linear(in_features=1280, out_features=1280, bias=True)
            (k_LoRA): LowRankProjection(1280, 1280, rank=6, alpha=6)
            (v_LoRA): LowRankProjection(1280, 1280, rank=6, alpha=6)
            (q_LoRA): LowRankProjection(1280, 1280, rank=6, alpha=6)
            (out_proj): Linear(in_features=1280, out_features=1280, bias=True)
            (rot_emb): RotaryEmbedding()
          )
          (self_attn_layer_norm): LayerNorm((1280,), eps=1e-05, elementwise_affine=True)
          (fc1_LoRA): LowRankProjection(1280, 5120, rank=6, alpha=6)
          (fc1): Linear(in_features=1280, out_features=5120, bias=True)
          (fc2_LoRA): LowRankProjection(5120, 1280, rank=6, alpha=6)
          (fc2): Linear(in_features=5120, out_features=1280, bias=True)
          (final_layer_norm): LayerNorm((1280,), eps=1e-05, elementwise_affine=True)
        )
        (21): TransformerLoRALayer(
          (self_attn): MultiheadAttention(
            (k_proj): Linear(in_features=1280, out_features=1280, bias=True)
            (v_proj): Linear(in_features=1280, out_features=1280, bias=True)
            (q_proj): Linear(in_features=1280, out_features=1280, bias=True)
            (k_LoRA): LowRankProjection(1280, 1280, rank=6, alpha=6)
            (v_LoRA): LowRankProjection(1280, 1280, rank=6, alpha=6)
            (q_LoRA): LowRankProjection(1280, 1280, rank=6, alpha=6)
            (out_proj): Linear(in_features=1280, out_features=1280, bias=True)
            (rot_emb): RotaryEmbedding()
          )
          (self_attn_layer_norm): LayerNorm((1280,), eps=1e-05, elementwise_affine=True)
          (fc1_LoRA): LowRankProjection(1280, 5120, rank=6, alpha=6)
          (fc1): Linear(in_features=1280, out_features=5120, bias=True)
          (fc2_LoRA): LowRankProjection(5120, 1280, rank=6, alpha=6)
          (fc2): Linear(in_features=5120, out_features=1280, bias=True)
          (final_layer_norm): LayerNorm((1280,), eps=1e-05, elementwise_affine=True)
        )
        (22): TransformerLoRALayer(
          (self_attn): MultiheadAttention(
            (k_proj): Linear(in_features=1280, out_features=1280, bias=True)
            (v_proj): Linear(in_features=1280, out_features=1280, bias=True)
            (q_proj): Linear(in_features=1280, out_features=1280, bias=True)
            (k_LoRA): LowRankProjection(1280, 1280, rank=6, alpha=6)
            (v_LoRA): LowRankProjection(1280, 1280, rank=6, alpha=6)
            (q_LoRA): LowRankProjection(1280, 1280, rank=6, alpha=6)
            (out_proj): Linear(in_features=1280, out_features=1280, bias=True)
            (rot_emb): RotaryEmbedding()
          )
          (self_attn_layer_norm): LayerNorm((1280,), eps=1e-05, elementwise_affine=True)
          (fc1_LoRA): LowRankProjection(1280, 5120, rank=6, alpha=6)
          (fc1): Linear(in_features=1280, out_features=5120, bias=True)
          (fc2_LoRA): LowRankProjection(5120, 1280, rank=6, alpha=6)
          (fc2): Linear(in_features=5120, out_features=1280, bias=True)
          (final_layer_norm): LayerNorm((1280,), eps=1e-05, elementwise_affine=True)
        )
        (23): TransformerLoRALayer(
          (self_attn): MultiheadAttention(
            (k_proj): Linear(in_features=1280, out_features=1280, bias=True)
            (v_proj): Linear(in_features=1280, out_features=1280, bias=True)
            (q_proj): Linear(in_features=1280, out_features=1280, bias=True)
            (k_LoRA): LowRankProjection(1280, 1280, rank=6, alpha=6)
            (v_LoRA): LowRankProjection(1280, 1280, rank=6, alpha=6)
            (q_LoRA): LowRankProjection(1280, 1280, rank=6, alpha=6)
            (out_proj): Linear(in_features=1280, out_features=1280, bias=True)
            (rot_emb): RotaryEmbedding()
          )
          (self_attn_layer_norm): LayerNorm((1280,), eps=1e-05, elementwise_affine=True)
          (fc1_LoRA): LowRankProjection(1280, 5120, rank=6, alpha=6)
          (fc1): Linear(in_features=1280, out_features=5120, bias=True)
          (fc2_LoRA): LowRankProjection(5120, 1280, rank=6, alpha=6)
          (fc2): Linear(in_features=5120, out_features=1280, bias=True)
          (final_layer_norm): LayerNorm((1280,), eps=1e-05, elementwise_affine=True)
        )
        (24): TransformerLoRALayer(
          (self_attn): MultiheadAttention(
            (k_proj): Linear(in_features=1280, out_features=1280, bias=True)
            (v_proj): Linear(in_features=1280, out_features=1280, bias=True)
            (q_proj): Linear(in_features=1280, out_features=1280, bias=True)
            (k_LoRA): LowRankProjection(1280, 1280, rank=6, alpha=6)
            (v_LoRA): LowRankProjection(1280, 1280, rank=6, alpha=6)
            (q_LoRA): LowRankProjection(1280, 1280, rank=6, alpha=6)
            (out_proj): Linear(in_features=1280, out_features=1280, bias=True)
            (rot_emb): RotaryEmbedding()
          )
          (self_attn_layer_norm): LayerNorm((1280,), eps=1e-05, elementwise_affine=True)
          (fc1_LoRA): LowRankProjection(1280, 5120, rank=6, alpha=6)
          (fc1): Linear(in_features=1280, out_features=5120, bias=True)
          (fc2_LoRA): LowRankProjection(5120, 1280, rank=6, alpha=6)
          (fc2): Linear(in_features=5120, out_features=1280, bias=True)
          (final_layer_norm): LayerNorm((1280,), eps=1e-05, elementwise_affine=True)
        )
        (25): TransformerLoRALayer(
          (self_attn): MultiheadAttention(
            (k_proj): Linear(in_features=1280, out_features=1280, bias=True)
            (v_proj): Linear(in_features=1280, out_features=1280, bias=True)
            (q_proj): Linear(in_features=1280, out_features=1280, bias=True)
            (k_LoRA): LowRankProjection(1280, 1280, rank=6, alpha=6)
            (v_LoRA): LowRankProjection(1280, 1280, rank=6, alpha=6)
            (q_LoRA): LowRankProjection(1280, 1280, rank=6, alpha=6)
            (out_proj): Linear(in_features=1280, out_features=1280, bias=True)
            (rot_emb): RotaryEmbedding()
          )
          (self_attn_layer_norm): LayerNorm((1280,), eps=1e-05, elementwise_affine=True)
          (fc1_LoRA): LowRankProjection(1280, 5120, rank=6, alpha=6)
          (fc1): Linear(in_features=1280, out_features=5120, bias=True)
          (fc2_LoRA): LowRankProjection(5120, 1280, rank=6, alpha=6)
          (fc2): Linear(in_features=5120, out_features=1280, bias=True)
          (final_layer_norm): LayerNorm((1280,), eps=1e-05, elementwise_affine=True)
        )
        (26): TransformerLoRALayer(
          (self_attn): MultiheadAttention(
            (k_proj): Linear(in_features=1280, out_features=1280, bias=True)
            (v_proj): Linear(in_features=1280, out_features=1280, bias=True)
            (q_proj): Linear(in_features=1280, out_features=1280, bias=True)
            (k_LoRA): LowRankProjection(1280, 1280, rank=6, alpha=6)
            (v_LoRA): LowRankProjection(1280, 1280, rank=6, alpha=6)
            (q_LoRA): LowRankProjection(1280, 1280, rank=6, alpha=6)
            (out_proj): Linear(in_features=1280, out_features=1280, bias=True)
            (rot_emb): RotaryEmbedding()
          )
          (self_attn_layer_norm): LayerNorm((1280,), eps=1e-05, elementwise_affine=True)
          (fc1_LoRA): LowRankProjection(1280, 5120, rank=6, alpha=6)
          (fc1): Linear(in_features=1280, out_features=5120, bias=True)
          (fc2_LoRA): LowRankProjection(5120, 1280, rank=6, alpha=6)
          (fc2): Linear(in_features=5120, out_features=1280, bias=True)
          (final_layer_norm): LayerNorm((1280,), eps=1e-05, elementwise_affine=True)
        )
        (27): TransformerLoRALayer(
          (self_attn): MultiheadAttention(
            (k_proj): Linear(in_features=1280, out_features=1280, bias=True)
            (v_proj): Linear(in_features=1280, out_features=1280, bias=True)
            (q_proj): Linear(in_features=1280, out_features=1280, bias=True)
            (k_LoRA): LowRankProjection(1280, 1280, rank=6, alpha=6)
            (v_LoRA): LowRankProjection(1280, 1280, rank=6, alpha=6)
            (q_LoRA): LowRankProjection(1280, 1280, rank=6, alpha=6)
            (out_proj): Linear(in_features=1280, out_features=1280, bias=True)
            (rot_emb): RotaryEmbedding()
          )
          (self_attn_layer_norm): LayerNorm((1280,), eps=1e-05, elementwise_affine=True)
          (fc1_LoRA): LowRankProjection(1280, 5120, rank=6, alpha=6)
          (fc1): Linear(in_features=1280, out_features=5120, bias=True)
          (fc2_LoRA): LowRankProjection(5120, 1280, rank=6, alpha=6)
          (fc2): Linear(in_features=5120, out_features=1280, bias=True)
          (final_layer_norm): LayerNorm((1280,), eps=1e-05, elementwise_affine=True)
        )
        (28): TransformerLoRALayer(
          (self_attn): MultiheadAttention(
            (k_proj): Linear(in_features=1280, out_features=1280, bias=True)
            (v_proj): Linear(in_features=1280, out_features=1280, bias=True)
            (q_proj): Linear(in_features=1280, out_features=1280, bias=True)
            (k_LoRA): LowRankProjection(1280, 1280, rank=6, alpha=6)
            (v_LoRA): LowRankProjection(1280, 1280, rank=6, alpha=6)
            (q_LoRA): LowRankProjection(1280, 1280, rank=6, alpha=6)
            (out_proj): Linear(in_features=1280, out_features=1280, bias=True)
            (rot_emb): RotaryEmbedding()
          )
          (self_attn_layer_norm): LayerNorm((1280,), eps=1e-05, elementwise_affine=True)
          (fc1_LoRA): LowRankProjection(1280, 5120, rank=6, alpha=6)
          (fc1): Linear(in_features=1280, out_features=5120, bias=True)
          (fc2_LoRA): LowRankProjection(5120, 1280, rank=6, alpha=6)
          (fc2): Linear(in_features=5120, out_features=1280, bias=True)
          (final_layer_norm): LayerNorm((1280,), eps=1e-05, elementwise_affine=True)
        )
        (29): TransformerLoRALayer(
          (self_attn): MultiheadAttention(
            (k_proj): Linear(in_features=1280, out_features=1280, bias=True)
            (v_proj): Linear(in_features=1280, out_features=1280, bias=True)
            (q_proj): Linear(in_features=1280, out_features=1280, bias=True)
            (k_LoRA): LowRankProjection(1280, 1280, rank=6, alpha=6)
            (v_LoRA): LowRankProjection(1280, 1280, rank=6, alpha=6)
            (q_LoRA): LowRankProjection(1280, 1280, rank=6, alpha=6)
            (out_proj): Linear(in_features=1280, out_features=1280, bias=True)
            (rot_emb): RotaryEmbedding()
          )
          (self_attn_layer_norm): LayerNorm((1280,), eps=1e-05, elementwise_affine=True)
          (fc1_LoRA): LowRankProjection(1280, 5120, rank=6, alpha=6)
          (fc1): Linear(in_features=1280, out_features=5120, bias=True)
          (fc2_LoRA): LowRankProjection(5120, 1280, rank=6, alpha=6)
          (fc2): Linear(in_features=5120, out_features=1280, bias=True)
          (final_layer_norm): LayerNorm((1280,), eps=1e-05, elementwise_affine=True)
        )
        (30): TransformerLoRALayer(
          (self_attn): MultiheadAttention(
            (k_proj): Linear(in_features=1280, out_features=1280, bias=True)
            (v_proj): Linear(in_features=1280, out_features=1280, bias=True)
            (q_proj): Linear(in_features=1280, out_features=1280, bias=True)
            (k_LoRA): LowRankProjection(1280, 1280, rank=6, alpha=6)
            (v_LoRA): LowRankProjection(1280, 1280, rank=6, alpha=6)
            (q_LoRA): LowRankProjection(1280, 1280, rank=6, alpha=6)
            (out_proj): Linear(in_features=1280, out_features=1280, bias=True)
            (rot_emb): RotaryEmbedding()
          )
          (self_attn_layer_norm): LayerNorm((1280,), eps=1e-05, elementwise_affine=True)
          (fc1_LoRA): LowRankProjection(1280, 5120, rank=6, alpha=6)
          (fc1): Linear(in_features=1280, out_features=5120, bias=True)
          (fc2_LoRA): LowRankProjection(5120, 1280, rank=6, alpha=6)
          (fc2): Linear(in_features=5120, out_features=1280, bias=True)
          (final_layer_norm): LayerNorm((1280,), eps=1e-05, elementwise_affine=True)
        )
        (31): TransformerLoRALayer(
          (self_attn): MultiheadAttention(
            (k_proj): Linear(in_features=1280, out_features=1280, bias=True)
            (v_proj): Linear(in_features=1280, out_features=1280, bias=True)
            (q_proj): Linear(in_features=1280, out_features=1280, bias=True)
            (k_LoRA): LowRankProjection(1280, 1280, rank=6, alpha=6)
            (v_LoRA): LowRankProjection(1280, 1280, rank=6, alpha=6)
            (q_LoRA): LowRankProjection(1280, 1280, rank=6, alpha=6)
            (out_proj): Linear(in_features=1280, out_features=1280, bias=True)
            (rot_emb): RotaryEmbedding()
          )
          (self_attn_layer_norm): LayerNorm((1280,), eps=1e-05, elementwise_affine=True)
          (fc1_LoRA): LowRankProjection(1280, 5120, rank=6, alpha=6)
          (fc1): Linear(in_features=1280, out_features=5120, bias=True)
          (fc2_LoRA): LowRankProjection(5120, 1280, rank=6, alpha=6)
          (fc2): Linear(in_features=5120, out_features=1280, bias=True)
          (final_layer_norm): LayerNorm((1280,), eps=1e-05, elementwise_affine=True)
        )
        (32): TransformerLoRALayer(
          (self_attn): MultiheadAttention(
            (k_proj): Linear(in_features=1280, out_features=1280, bias=True)
            (v_proj): Linear(in_features=1280, out_features=1280, bias=True)
            (q_proj): Linear(in_features=1280, out_features=1280, bias=True)
            (k_LoRA): LowRankProjection(1280, 1280, rank=6, alpha=6)
            (v_LoRA): LowRankProjection(1280, 1280, rank=6, alpha=6)
            (q_LoRA): LowRankProjection(1280, 1280, rank=6, alpha=6)
            (out_proj): Linear(in_features=1280, out_features=1280, bias=True)
            (rot_emb): RotaryEmbedding()
          )
          (self_attn_layer_norm): LayerNorm((1280,), eps=1e-05, elementwise_affine=True)
          (fc1_LoRA): LowRankProjection(1280, 5120, rank=6, alpha=6)
          (fc1): Linear(in_features=1280, out_features=5120, bias=True)
          (fc2_LoRA): LowRankProjection(5120, 1280, rank=6, alpha=6)
          (fc2): Linear(in_features=5120, out_features=1280, bias=True)
          (final_layer_norm): LayerNorm((1280,), eps=1e-05, elementwise_affine=True)
        )
      )
      (contact_head): ContactPredictionHead(
        (regression): Linear(in_features=660, out_features=1, bias=True)
        (activation): Sigmoid()
      )
      (emb_layer_norm_after): LayerNorm((1280,), eps=1e-05, elementwise_affine=True)
      (lm_head): RobertaLMHead(
        (dense): Linear(in_features=1280, out_features=1280, bias=True)
        (layer_norm): LayerNorm((1280,), eps=1e-05, elementwise_affine=True)
      )
    )
  )
  (ss8): Sequential(
    (0): Linear(in_features=1280, out_features=8, bias=True)
  )
  (ss3): Sequential(
    (0): Linear(in_features=1280, out_features=3, bias=True)
  )
  (disorder): Sequential(
    (0): Linear(in_features=1280, out_features=2, bias=True)
  )
  (rsa): Sequential(
    (0): Linear(in_features=1280, out_features=1, bias=True)
    (1): Sigmoid()
  )
  (phi): Sequential(
    (0): Linear(in_features=1280, out_features=2, bias=True)
    (1): Tanh()
  )
  (psi): Sequential(
    (0): Linear(in_features=1280, out_features=2, bias=True)
    (1): Tanh()
  )
  (tasa): Sequential(
    (0): Linear(in_features=1280, out_features=1, bias=True)
  )
  (thsa): Sequential(
    (0): Linear(in_features=1280, out_features=1, bias=True)
  )
  (lhp): Sequential(
    (0): Linear(in_features=1280, out_features=1, bias=True)
  )
  (hp_loc): Sequential(
    (0): Linear(in_features=1280, out_features=2, bias=True)
  )
  (lhp_loc): Sequential(
    (0): Linear(in_features=1280, out_features=2, bias=True)
  )
  (species): Sequential(
    (0): Linear(in_features=1280, out_features=10, bias=True)
  )
  (expression): Sequential(
    (0): Linear(in_features=1280, out_features=10, bias=True)
  )
  (aggregation): Sequential(
    (0): Linear(in_features=1280, out_features=2, bias=True)
  )
)
Trainable parameters: 1073967
2024-01-23 19:36:23,381 - PROT.PROT.main - INFO - Using devices [0] of available devices [0]
Using devices [0] of available devices [0]
2024-01-23 19:36:31,696 - PROT.PROT.main - INFO - Building: torch.optim.Adam
2024-01-23 19:36:31,697 - PROT.PROT.models.ESM2_multitask.model - INFO - Params to learn:
2024-01-23 19:36:31,699 - PROT.PROT.models.ESM2_multitask.model - INFO - 	embedding.model.layers.0.self_attn.k_LoRA.LoRA_A
…
