…
  Stored in directory: /scratch/697094/pip-ephem-wheel-cache-yjw5f9iq/wheels/45/68/93/b8da68ce5f13f805ffb4ab0887e7e771b77851860ccad4ba18
Successfully built PROT
Installing collected packages: PROT
  Attempting uninstall: PROT
    Found existing installation: PROT 0.0.1
    Uninstalling PROT-0.0.1:
      Successfully uninstalled PROT-0.0.1
Successfully installed PROT-0.0.1
2024-04-08 18:15:25,328 - PROT.PROT.main - INFO - Building: PROT.models.ESM2_original_extended
FINETUNING CHOSEN: no finetuning
Gradient Checkpointing None
2024-04-08 18:15:53,852 - PROT.PROT.models.ESM2_original_extended.model - INFO - <init>: 
ESM2_original_extended(
  (embedding): ESM2Embedding(
    (model): ESM2(
      (embed_tokens): Embedding(33, 1280, padding_idx=1)
      (layers): ModuleList(
        (0): TransformerLayer(
          (self_attn): MultiheadAttention(
            (k_proj): Linear(in_features=1280, out_features=1280, bias=True)
            (v_proj): Linear(in_features=1280, out_features=1280, bias=True)
            (q_proj): Linear(in_features=1280, out_features=1280, bias=True)
            (out_proj): Linear(in_features=1280, out_features=1280, bias=True)
            (rot_emb): RotaryEmbedding()
          )
          (self_attn_layer_norm): LayerNorm((1280,), eps=1e-05, elementwise_affine=True)
          (fc1): Linear(in_features=1280, out_features=5120, bias=True)
          (fc2): Linear(in_features=5120, out_features=1280, bias=True)
          (final_layer_norm): LayerNorm((1280,), eps=1e-05, elementwise_affine=True)
        )
        (1): TransformerLayer(
          (self_attn): MultiheadAttention(
            (k_proj): Linear(in_features=1280, out_features=1280, bias=True)
            (v_proj): Linear(in_features=1280, out_features=1280, bias=True)
            (q_proj): Linear(in_features=1280, out_features=1280, bias=True)
            (out_proj): Linear(in_features=1280, out_features=1280, bias=True)
            (rot_emb): RotaryEmbedding()
          )
          (self_attn_layer_norm): LayerNorm((1280,), eps=1e-05, elementwise_affine=True)
          (fc1): Linear(in_features=1280, out_features=5120, bias=True)
          (fc2): Linear(in_features=5120, out_features=1280, bias=True)
          (final_layer_norm): LayerNorm((1280,), eps=1e-05, elementwise_affine=True)
        )
        (2): TransformerLayer(
          (self_attn): MultiheadAttention(
            (k_proj): Linear(in_features=1280, out_features=1280, bias=True)
            (v_proj): Linear(in_features=1280, out_features=1280, bias=True)
            (q_proj): Linear(in_features=1280, out_features=1280, bias=True)
            (out_proj): Linear(in_features=1280, out_features=1280, bias=True)
            (rot_emb): RotaryEmbedding()
          )
          (self_attn_layer_norm): LayerNorm((1280,), eps=1e-05, elementwise_affine=True)
          (fc1): Linear(in_features=1280, out_features=5120, bias=True)
          (fc2): Linear(in_features=5120, out_features=1280, bias=True)
          (final_layer_norm): LayerNorm((1280,), eps=1e-05, elementwise_affine=True)
        )
        (3): TransformerLayer(
          (self_attn): MultiheadAttention(
            (k_proj): Linear(in_features=1280, out_features=1280, bias=True)
            (v_proj): Linear(in_features=1280, out_features=1280, bias=True)
            (q_proj): Linear(in_features=1280, out_features=1280, bias=True)
            (out_proj): Linear(in_features=1280, out_features=1280, bias=True)
            (rot_emb): RotaryEmbedding()
          )
          (self_attn_layer_norm): LayerNorm((1280,), eps=1e-05, elementwise_affine=True)
          (fc1): Linear(in_features=1280, out_features=5120, bias=True)
          (fc2): Linear(in_features=5120, out_features=1280, bias=True)
          (final_layer_norm): LayerNorm((1280,), eps=1e-05, elementwise_affine=True)
        )
        (4): TransformerLayer(
          (self_attn): MultiheadAttention(
            (k_proj): Linear(in_features=1280, out_features=1280, bias=True)
            (v_proj): Linear(in_features=1280, out_features=1280, bias=True)
            (q_proj): Linear(in_features=1280, out_features=1280, bias=True)
            (out_proj): Linear(in_features=1280, out_features=1280, bias=True)
            (rot_emb): RotaryEmbedding()
          )
          (self_attn_layer_norm): LayerNorm((1280,), eps=1e-05, elementwise_affine=True)
          (fc1): Linear(in_features=1280, out_features=5120, bias=True)
          (fc2): Linear(in_features=5120, out_features=1280, bias=True)
          (final_layer_norm): LayerNorm((1280,), eps=1e-05, elementwise_affine=True)
        )
        (5): TransformerLayer(
          (self_attn): MultiheadAttention(
            (k_proj): Linear(in_features=1280, out_features=1280, bias=True)
            (v_proj): Linear(in_features=1280, out_features=1280, bias=True)
            (q_proj): Linear(in_features=1280, out_features=1280, bias=True)
            (out_proj): Linear(in_features=1280, out_features=1280, bias=True)
            (rot_emb): RotaryEmbedding()
          )
          (self_attn_layer_norm): LayerNorm((1280,), eps=1e-05, elementwise_affine=True)
          (fc1): Linear(in_features=1280, out_features=5120, bias=True)
          (fc2): Linear(in_features=5120, out_features=1280, bias=True)
          (final_layer_norm): LayerNorm((1280,), eps=1e-05, elementwise_affine=True)
        )
        (6): TransformerLayer(
          (self_attn): MultiheadAttention(
            (k_proj): Linear(in_features=1280, out_features=1280, bias=True)
            (v_proj): Linear(in_features=1280, out_features=1280, bias=True)
            (q_proj): Linear(in_features=1280, out_features=1280, bias=True)
            (out_proj): Linear(in_features=1280, out_features=1280, bias=True)
            (rot_emb): RotaryEmbedding()
          )
          (self_attn_layer_norm): LayerNorm((1280,), eps=1e-05, elementwise_affine=True)
          (fc1): Linear(in_features=1280, out_features=5120, bias=True)
          (fc2): Linear(in_features=5120, out_features=1280, bias=True)
          (final_layer_norm): LayerNorm((1280,), eps=1e-05, elementwise_affine=True)
        )
        (7): TransformerLayer(
          (self_attn): MultiheadAttention(
            (k_proj): Linear(in_features=1280, out_features=1280, bias=True)
            (v_proj): Linear(in_features=1280, out_features=1280, bias=True)
            (q_proj): Linear(in_features=1280, out_features=1280, bias=True)
            (out_proj): Linear(in_features=1280, out_features=1280, bias=True)
            (rot_emb): RotaryEmbedding()
          )
          (self_attn_layer_norm): LayerNorm((1280,), eps=1e-05, elementwise_affine=True)
          (fc1): Linear(in_features=1280, out_features=5120, bias=True)
          (fc2): Linear(in_features=5120, out_features=1280, bias=True)
          (final_layer_norm): LayerNorm((1280,), eps=1e-05, elementwise_affine=True)
        )
        (8): TransformerLayer(
          (self_attn): MultiheadAttention(
            (k_proj): Linear(in_features=1280, out_features=1280, bias=True)
            (v_proj): Linear(in_features=1280, out_features=1280, bias=True)
            (q_proj): Linear(in_features=1280, out_features=1280, bias=True)
            (out_proj): Linear(in_features=1280, out_features=1280, bias=True)
            (rot_emb): RotaryEmbedding()
          )
          (self_attn_layer_norm): LayerNorm((1280,), eps=1e-05, elementwise_affine=True)
          (fc1): Linear(in_features=1280, out_features=5120, bias=True)
          (fc2): Linear(in_features=5120, out_features=1280, bias=True)
          (final_layer_norm): LayerNorm((1280,), eps=1e-05, elementwise_affine=True)
        )
        (9): TransformerLayer(
          (self_attn): MultiheadAttention(
            (k_proj): Linear(in_features=1280, out_features=1280, bias=True)
            (v_proj): Linear(in_features=1280, out_features=1280, bias=True)
            (q_proj): Linear(in_features=1280, out_features=1280, bias=True)
            (out_proj): Linear(in_features=1280, out_features=1280, bias=True)
            (rot_emb): RotaryEmbedding()
          )
          (self_attn_layer_norm): LayerNorm((1280,), eps=1e-05, elementwise_affine=True)
          (fc1): Linear(in_features=1280, out_features=5120, bias=True)
          (fc2): Linear(in_features=5120, out_features=1280, bias=True)
          (final_layer_norm): LayerNorm((1280,), eps=1e-05, elementwise_affine=True)
        )
        (10): TransformerLayer(
          (self_attn): MultiheadAttention(
            (k_proj): Linear(in_features=1280, out_features=1280, bias=True)
            (v_proj): Linear(in_features=1280, out_features=1280, bias=True)
            (q_proj): Linear(in_features=1280, out_features=1280, bias=True)
            (out_proj): Linear(in_features=1280, out_features=1280, bias=True)
            (rot_emb): RotaryEmbedding()
          )
          (self_attn_layer_norm): LayerNorm((1280,), eps=1e-05, elementwise_affine=True)
          (fc1): Linear(in_features=1280, out_features=5120, bias=True)
          (fc2): Linear(in_features=5120, out_features=1280, bias=True)
          (final_layer_norm): LayerNorm((1280,), eps=1e-05, elementwise_affine=True)
        )
        (11): TransformerLayer(
          (self_attn): MultiheadAttention(
            (k_proj): Linear(in_features=1280, out_features=1280, bias=True)
            (v_proj): Linear(in_features=1280, out_features=1280, bias=True)
            (q_proj): Linear(in_features=1280, out_features=1280, bias=True)
            (out_proj): Linear(in_features=1280, out_features=1280, bias=True)
            (rot_emb): RotaryEmbedding()
          )
          (self_attn_layer_norm): LayerNorm((1280,), eps=1e-05, elementwise_affine=True)
          (fc1): Linear(in_features=1280, out_features=5120, bias=True)
          (fc2): Linear(in_features=5120, out_features=1280, bias=True)
          (final_layer_norm): LayerNorm((1280,), eps=1e-05, elementwise_affine=True)
        )
        (12): TransformerLayer(
          (self_attn): MultiheadAttention(
            (k_proj): Linear(in_features=1280, out_features=1280, bias=True)
            (v_proj): Linear(in_features=1280, out_features=1280, bias=True)
            (q_proj): Linear(in_features=1280, out_features=1280, bias=True)
            (out_proj): Linear(in_features=1280, out_features=1280, bias=True)
            (rot_emb): RotaryEmbedding()
          )
          (self_attn_layer_norm): LayerNorm((1280,), eps=1e-05, elementwise_affine=True)
          (fc1): Linear(in_features=1280, out_features=5120, bias=True)
          (fc2): Linear(in_features=5120, out_features=1280, bias=True)
          (final_layer_norm): LayerNorm((1280,), eps=1e-05, elementwise_affine=True)
        )
        (13): TransformerLayer(
          (self_attn): MultiheadAttention(
            (k_proj): Linear(in_features=1280, out_features=1280, bias=True)
            (v_proj): Linear(in_features=1280, out_features=1280, bias=True)
            (q_proj): Linear(in_features=1280, out_features=1280, bias=True)
            (out_proj): Linear(in_features=1280, out_features=1280, bias=True)
            (rot_emb): RotaryEmbedding()
          )
          (self_attn_layer_norm): LayerNorm((1280,), eps=1e-05, elementwise_affine=True)
          (fc1): Linear(in_features=1280, out_features=5120, bias=True)
          (fc2): Linear(in_features=5120, out_features=1280, bias=True)
          (final_layer_norm): LayerNorm((1280,), eps=1e-05, elementwise_affine=True)
        )
        (14): TransformerLayer(
          (self_attn): MultiheadAttention(
            (k_proj): Linear(in_features=1280, out_features=1280, bias=True)
            (v_proj): Linear(in_features=1280, out_features=1280, bias=True)
            (q_proj): Linear(in_features=1280, out_features=1280, bias=True)
            (out_proj): Linear(in_features=1280, out_features=1280, bias=True)
            (rot_emb): RotaryEmbedding()
          )
          (self_attn_layer_norm): LayerNorm((1280,), eps=1e-05, elementwise_affine=True)
          (fc1): Linear(in_features=1280, out_features=5120, bias=True)
          (fc2): Linear(in_features=5120, out_features=1280, bias=True)
          (final_layer_norm): LayerNorm((1280,), eps=1e-05, elementwise_affine=True)
        )
        (15): TransformerLayer(
          (self_attn): MultiheadAttention(
            (k_proj): Linear(in_features=1280, out_features=1280, bias=True)
            (v_proj): Linear(in_features=1280, out_features=1280, bias=True)
            (q_proj): Linear(in_features=1280, out_features=1280, bias=True)
            (out_proj): Linear(in_features=1280, out_features=1280, bias=True)
            (rot_emb): RotaryEmbedding()
          )
          (self_attn_layer_norm): LayerNorm((1280,), eps=1e-05, elementwise_affine=True)
          (fc1): Linear(in_features=1280, out_features=5120, bias=True)
          (fc2): Linear(in_features=5120, out_features=1280, bias=True)
          (final_layer_norm): LayerNorm((1280,), eps=1e-05, elementwise_affine=True)
        )
        (16): TransformerLayer(
          (self_attn): MultiheadAttention(
            (k_proj): Linear(in_features=1280, out_features=1280, bias=True)
            (v_proj): Linear(in_features=1280, out_features=1280, bias=True)
            (q_proj): Linear(in_features=1280, out_features=1280, bias=True)
            (out_proj): Linear(in_features=1280, out_features=1280, bias=True)
            (rot_emb): RotaryEmbedding()
          )
          (self_attn_layer_norm): LayerNorm((1280,), eps=1e-05, elementwise_affine=True)
          (fc1): Linear(in_features=1280, out_features=5120, bias=True)
          (fc2): Linear(in_features=5120, out_features=1280, bias=True)
          (final_layer_norm): LayerNorm((1280,), eps=1e-05, elementwise_affine=True)
        )
        (17): TransformerLayer(
          (self_attn): MultiheadAttention(
            (k_proj): Linear(in_features=1280, out_features=1280, bias=True)
            (v_proj): Linear(in_features=1280, out_features=1280, bias=True)
            (q_proj): Linear(in_features=1280, out_features=1280, bias=True)
            (out_proj): Linear(in_features=1280, out_features=1280, bias=True)
            (rot_emb): RotaryEmbedding()
          )
          (self_attn_layer_norm): LayerNorm((1280,), eps=1e-05, elementwise_affine=True)
          (fc1): Linear(in_features=1280, out_features=5120, bias=True)
          (fc2): Linear(in_features=5120, out_features=1280, bias=True)
          (final_layer_norm): LayerNorm((1280,), eps=1e-05, elementwise_affine=True)
        )
        (18): TransformerLayer(
          (self_attn): MultiheadAttention(
            (k_proj): Linear(in_features=1280, out_features=1280, bias=True)
            (v_proj): Linear(in_features=1280, out_features=1280, bias=True)
            (q_proj): Linear(in_features=1280, out_features=1280, bias=True)
            (out_proj): Linear(in_features=1280, out_features=1280, bias=True)
            (rot_emb): RotaryEmbedding()
          )
          (self_attn_layer_norm): LayerNorm((1280,), eps=1e-05, elementwise_affine=True)
          (fc1): Linear(in_features=1280, out_features=5120, bias=True)
          (fc2): Linear(in_features=5120, out_features=1280, bias=True)
          (final_layer_norm): LayerNorm((1280,), eps=1e-05, elementwise_affine=True)
        )
        (19): TransformerLayer(
          (self_attn): MultiheadAttention(
            (k_proj): Linear(in_features=1280, out_features=1280, bias=True)
            (v_proj): Linear(in_features=1280, out_features=1280, bias=True)
            (q_proj): Linear(in_features=1280, out_features=1280, bias=True)
            (out_proj): Linear(in_features=1280, out_features=1280, bias=True)
            (rot_emb): RotaryEmbedding()
          )
          (self_attn_layer_norm): LayerNorm((1280,), eps=1e-05, elementwise_affine=True)
          (fc1): Linear(in_features=1280, out_features=5120, bias=True)
          (fc2): Linear(in_features=5120, out_features=1280, bias=True)
          (final_layer_norm): LayerNorm((1280,), eps=1e-05, elementwise_affine=True)
        )
        (20): TransformerLayer(
          (self_attn): MultiheadAttention(
            (k_proj): Linear(in_features=1280, out_features=1280, bias=True)
            (v_proj): Linear(in_features=1280, out_features=1280, bias=True)
            (q_proj): Linear(in_features=1280, out_features=1280, bias=True)
            (out_proj): Linear(in_features=1280, out_features=1280, bias=True)
            (rot_emb): RotaryEmbedding()
          )
          (self_attn_layer_norm): LayerNorm((1280,), eps=1e-05, elementwise_affine=True)
          (fc1): Linear(in_features=1280, out_features=5120, bias=True)
          (fc2): Linear(in_features=5120, out_features=1280, bias=True)
          (final_layer_norm): LayerNorm((1280,), eps=1e-05, elementwise_affine=True)
        )
        (21): TransformerLayer(
          (self_attn): MultiheadAttention(
            (k_proj): Linear(in_features=1280, out_features=1280, bias=True)
            (v_proj): Linear(in_features=1280, out_features=1280, bias=True)
            (q_proj): Linear(in_features=1280, out_features=1280, bias=True)
            (out_proj): Linear(in_features=1280, out_features=1280, bias=True)
            (rot_emb): RotaryEmbedding()
          )
          (self_attn_layer_norm): LayerNorm((1280,), eps=1e-05, elementwise_affine=True)
          (fc1): Linear(in_features=1280, out_features=5120, bias=True)
          (fc2): Linear(in_features=5120, out_features=1280, bias=True)
          (final_layer_norm): LayerNorm((1280,), eps=1e-05, elementwise_affine=True)
        )
        (22): TransformerLayer(
          (self_attn): MultiheadAttention(
            (k_proj): Linear(in_features=1280, out_features=1280, bias=True)
            (v_proj): Linear(in_features=1280, out_features=1280, bias=True)
            (q_proj): Linear(in_features=1280, out_features=1280, bias=True)
            (out_proj): Linear(in_features=1280, out_features=1280, bias=True)
            (rot_emb): RotaryEmbedding()
          )
          (self_attn_layer_norm): LayerNorm((1280,), eps=1e-05, elementwise_affine=True)
          (fc1): Linear(in_features=1280, out_features=5120, bias=True)
          (fc2): Linear(in_features=5120, out_features=1280, bias=True)
          (final_layer_norm): LayerNorm((1280,), eps=1e-05, elementwise_affine=True)
        )
        (23): TransformerLayer(
          (self_attn): MultiheadAttention(
            (k_proj): Linear(in_features=1280, out_features=1280, bias=True)
            (v_proj): Linear(in_features=1280, out_features=1280, bias=True)
            (q_proj): Linear(in_features=1280, out_features=1280, bias=True)
            (out_proj): Linear(in_features=1280, out_features=1280, bias=True)
            (rot_emb): RotaryEmbedding()
          )
          (self_attn_layer_norm): LayerNorm((1280,), eps=1e-05, elementwise_affine=True)
          (fc1): Linear(in_features=1280, out_features=5120, bias=True)
          (fc2): Linear(in_features=5120, out_features=1280, bias=True)
          (final_layer_norm): LayerNorm((1280,), eps=1e-05, elementwise_affine=True)
        )
        (24): TransformerLayer(
          (self_attn): MultiheadAttention(
            (k_proj): Linear(in_features=1280, out_features=1280, bias=True)
            (v_proj): Linear(in_features=1280, out_features=1280, bias=True)
            (q_proj): Linear(in_features=1280, out_features=1280, bias=True)
            (out_proj): Linear(in_features=1280, out_features=1280, bias=True)
            (rot_emb): RotaryEmbedding()
          )
          (self_attn_layer_norm): LayerNorm((1280,), eps=1e-05, elementwise_affine=True)
          (fc1): Linear(in_features=1280, out_features=5120, bias=True)
          (fc2): Linear(in_features=5120, out_features=1280, bias=True)
          (final_layer_norm): LayerNorm((1280,), eps=1e-05, elementwise_affine=True)
        )
        (25): TransformerLayer(
          (self_attn): MultiheadAttention(
            (k_proj): Linear(in_features=1280, out_features=1280, bias=True)
            (v_proj): Linear(in_features=1280, out_features=1280, bias=True)
            (q_proj): Linear(in_features=1280, out_features=1280, bias=True)
            (out_proj): Linear(in_features=1280, out_features=1280, bias=True)
            (rot_emb): RotaryEmbedding()
          )
          (self_attn_layer_norm): LayerNorm((1280,), eps=1e-05, elementwise_affine=True)
          (fc1): Linear(in_features=1280, out_features=5120, bias=True)
          (fc2): Linear(in_features=5120, out_features=1280, bias=True)
          (final_layer_norm): LayerNorm((1280,), eps=1e-05, elementwise_affine=True)
        )
        (26): TransformerLayer(
          (self_attn): MultiheadAttention(
            (k_proj): Linear(in_features=1280, out_features=1280, bias=True)
            (v_proj): Linear(in_features=1280, out_features=1280, bias=True)
            (q_proj): Linear(in_features=1280, out_features=1280, bias=True)
            (out_proj): Linear(in_features=1280, out_features=1280, bias=True)
            (rot_emb): RotaryEmbedding()
          )
          (self_attn_layer_norm): LayerNorm((1280,), eps=1e-05, elementwise_affine=True)
          (fc1): Linear(in_features=1280, out_features=5120, bias=True)
          (fc2): Linear(in_features=5120, out_features=1280, bias=True)
          (final_layer_norm): LayerNorm((1280,), eps=1e-05, elementwise_affine=True)
        )
        (27): TransformerLayer(
          (self_attn): MultiheadAttention(
            (k_proj): Linear(in_features=1280, out_features=1280, bias=True)
            (v_proj): Linear(in_features=1280, out_features=1280, bias=True)
            (q_proj): Linear(in_features=1280, out_features=1280, bias=True)
            (out_proj): Linear(in_features=1280, out_features=1280, bias=True)
            (rot_emb): RotaryEmbedding()
          )
          (self_attn_layer_norm): LayerNorm((1280,), eps=1e-05, elementwise_affine=True)
          (fc1): Linear(in_features=1280, out_features=5120, bias=True)
          (fc2): Linear(in_features=5120, out_features=1280, bias=True)
          (final_layer_norm): LayerNorm((1280,), eps=1e-05, elementwise_affine=True)
        )
        (28): TransformerLayer(
          (self_attn): MultiheadAttention(
            (k_proj): Linear(in_features=1280, out_features=1280, bias=True)
            (v_proj): Linear(in_features=1280, out_features=1280, bias=True)
            (q_proj): Linear(in_features=1280, out_features=1280, bias=True)
            (out_proj): Linear(in_features=1280, out_features=1280, bias=True)
            (rot_emb): RotaryEmbedding()
          )
          (self_attn_layer_norm): LayerNorm((1280,), eps=1e-05, elementwise_affine=True)
          (fc1): Linear(in_features=1280, out_features=5120, bias=True)
          (fc2): Linear(in_features=5120, out_features=1280, bias=True)
          (final_layer_norm): LayerNorm((1280,), eps=1e-05, elementwise_affine=True)
        )
        (29): TransformerLayer(
          (self_attn): MultiheadAttention(
            (k_proj): Linear(in_features=1280, out_features=1280, bias=True)
            (v_proj): Linear(in_features=1280, out_features=1280, bias=True)
            (q_proj): Linear(in_features=1280, out_features=1280, bias=True)
            (out_proj): Linear(in_features=1280, out_features=1280, bias=True)
            (rot_emb): RotaryEmbedding()
          )
          (self_attn_layer_norm): LayerNorm((1280,), eps=1e-05, elementwise_affine=True)
          (fc1): Linear(in_features=1280, out_features=5120, bias=True)
          (fc2): Linear(in_features=5120, out_features=1280, bias=True)
          (final_layer_norm): LayerNorm((1280,), eps=1e-05, elementwise_affine=True)
        )
        (30): TransformerLayer(
          (self_attn): MultiheadAttention(
            (k_proj): Linear(in_features=1280, out_features=1280, bias=True)
            (v_proj): Linear(in_features=1280, out_features=1280, bias=True)
            (q_proj): Linear(in_features=1280, out_features=1280, bias=True)
            (out_proj): Linear(in_features=1280, out_features=1280, bias=True)
            (rot_emb): RotaryEmbedding()
          )
          (self_attn_layer_norm): LayerNorm((1280,), eps=1e-05, elementwise_affine=True)
          (fc1): Linear(in_features=1280, out_features=5120, bias=True)
          (fc2): Linear(in_features=5120, out_features=1280, bias=True)
          (final_layer_norm): LayerNorm((1280,), eps=1e-05, elementwise_affine=True)
        )
        (31): TransformerLayer(
          (self_attn): MultiheadAttention(
            (k_proj): Linear(in_features=1280, out_features=1280, bias=True)
            (v_proj): Linear(in_features=1280, out_features=1280, bias=True)
            (q_proj): Linear(in_features=1280, out_features=1280, bias=True)
            (out_proj): Linear(in_features=1280, out_features=1280, bias=True)
            (rot_emb): RotaryEmbedding()
          )
          (self_attn_layer_norm): LayerNorm((1280,), eps=1e-05, elementwise_affine=True)
          (fc1): Linear(in_features=1280, out_features=5120, bias=True)
          (fc2): Linear(in_features=5120, out_features=1280, bias=True)
          (final_layer_norm): LayerNorm((1280,), eps=1e-05, elementwise_affine=True)
        )
        (32): TransformerLayer(
          (self_attn): MultiheadAttention(
            (k_proj): Linear(in_features=1280, out_features=1280, bias=True)
            (v_proj): Linear(in_features=1280, out_features=1280, bias=True)
            (q_proj): Linear(in_features=1280, out_features=1280, bias=True)
            (out_proj): Linear(in_features=1280, out_features=1280, bias=True)
            (rot_emb): RotaryEmbedding()
          )
          (self_attn_layer_norm): LayerNorm((1280,), eps=1e-05, elementwise_affine=True)
          (fc1): Linear(in_features=1280, out_features=5120, bias=True)
          (fc2): Linear(in_features=5120, out_features=1280, bias=True)
          (final_layer_norm): LayerNorm((1280,), eps=1e-05, elementwise_affine=True)
        )
      )
      (contact_head): ContactPredictionHead(
        (regression): Linear(in_features=660, out_features=1, bias=True)
        (activation): Sigmoid()
      )
      (emb_layer_norm_after): LayerNorm((1280,), eps=1e-05, elementwise_affine=True)
      (lm_head): RobertaLMHead(
        (dense): Linear(in_features=1280, out_features=1280, bias=True)
        (layer_norm): LayerNorm((1280,), eps=1e-05, elementwise_affine=True)
      )
    )
  )
  (conv): ModuleList(
    (0): Sequential(
      (0): Dropout(p=0.5, inplace=False)
      (1): Conv1d(1280, 32, kernel_size=(129,), stride=(1,), padding=(64,))
      (2): ReLU()
    )
    (1): Sequential(
      (0): Dropout(p=0.5, inplace=False)
      (1): Conv1d(1280, 32, kernel_size=(257,), stride=(1,), padding=(128,))
      (2): ReLU()
    )
  )
  (batch_norm): BatchNorm1d(1344, eps=1e-05, momentum=0.1, affine=True, track_running_stats=True)
  (lstm): LSTM(1344, 1024, num_layers=2, batch_first=True, dropout=0.5, bidirectional=True)
  (lstm_dropout_layer): Dropout(p=0.5, inplace=False)
  (ss8): Sequential(
    (0): Linear(in_features=2048, out_features=8, bias=True)
  )
  (ss3): Sequential(
    (0): Linear(in_features=2048, out_features=3, bias=True)
  )
  (disorder): Sequential(
    (0): Linear(in_features=2048, out_features=2, bias=True)
  )
  (rsa): Sequential(
    (0): Linear(in_features=2048, out_features=1, bias=True)
    (1): Sigmoid()
  )
  (phi): Sequential(
    (0): Linear(in_features=2048, out_features=2, bias=True)
    (1): Tanh()
  )
  (psi): Sequential(
    (0): Linear(in_features=2048, out_features=2, bias=True)
    (1): Tanh()
  )
  (tasa): Sequential(
    (0): Linear(in_features=2048, out_features=1, bias=True)
  )
  (thsa): Sequential(
    (0): Linear(in_features=2048, out_features=1, bias=True)
  )
  (lhp): Sequential(
    (0): Linear(in_features=2048, out_features=1, bias=True)
  )
  (hp_loc): Sequential(
    (0): Linear(in_features=2048, out_features=2, bias=True)
  )
  (lhp_loc): Sequential(
    (0): Linear(in_features=2048, out_features=2, bias=True)
  )
  (species): Sequential(
    (0): Linear(in_features=2048, out_features=10, bias=True)
  )
  (expression): Sequential(
    (0): Linear(in_features=2048, out_features=2, bias=True)
  )
  (aggregation): Sequential(
    (0): Linear(in_features=2048, out_features=2, bias=True)
  )
)
Trainable parameters: 60490471
2024-04-08 18:15:53,864 - PROT.PROT.main - INFO - Using devices [0] of available devices [0]
Using devices [0] of available devices [0]
2024-04-08 18:15:55,128 - PROT.PROT.main - INFO - Building: torch.optim.Adam
2024-04-08 18:15:55,131 - PROT.PROT.main - INFO - Building: PROT.data_loader.augmentation.sparse_token
FINETUNING CHOSEN: no finetuning
…
